_________________________________________________________________
Layer (type)                 Output Shape              Param #   
=================================================================
dense_1 (Dense)              (None, 1, 360)            26280     
_________________________________________________________________
dense_2 (Dense)              (None, 1, 250)            90250     
_________________________________________________________________
dense_3 (Dense)              (None, 1, 250)            62750     
_________________________________________________________________
dense_4 (Dense)              (None, 1, 250)            62750     
_________________________________________________________________
dense_5 (Dense)              (None, 1, 250)            62750     
_________________________________________________________________
dense_6 (Dense)              (None, 1, 36)             9036      
=================================================================
Total params: 313,816
Trainable params: 313,816
Non-trainable params: 0
_________________________________________________________________
Failed to load checkpoint
Generation      0 | Steps       2424 | Test reward    -8.6 | Mean pop reward    -7.2 | Time  221.43 seconds
Generation    100 | Steps     228225 | Test reward    -5.4 | Mean pop reward    -6.8 | Time  547.80 seconds
…
