_________________________________________________________________
Layer (type)                 Output Shape              Param #   
=================================================================
dense_1 (Dense)              (None, 1, 360)            26280     
_________________________________________________________________
dense_2 (Dense)              (None, 1, 250)            90250     
_________________________________________________________________
dense_3 (Dense)              (None, 1, 250)            62750     
_________________________________________________________________
dense_4 (Dense)              (None, 1, 250)            62750     
_________________________________________________________________
dense_5 (Dense)              (None, 1, 250)            62750     
_________________________________________________________________
dense_6 (Dense)              (None, 1, 36)             9036      
=================================================================
Total params: 313,816
Trainable params: 313,816
Non-trainable params: 0
_________________________________________________________________
Failed to load checkpoint
Generation      0 | Steps       3232 | Test reward    -6.0 | Mean pop reward    -6.3 | Time  153.38 seconds
Generation    100 | Steps     336762 | Test reward    -7.0 | Mean pop reward    -6.4 | Time  603.67 seconds
…
