_________________________________________________________________
Layer (type)                 Output Shape              Param #   
=================================================================
dense_1 (Dense)              (None, 1, 360)            129960    
_________________________________________________________________
dense_2 (Dense)              (None, 1, 250)            90250     
_________________________________________________________________
dense_3 (Dense)              (None, 1, 250)            62750     
_________________________________________________________________
dense_4 (Dense)              (None, 1, 250)            62750     
_________________________________________________________________
dense_5 (Dense)              (None, 1, 250)            62750     
_________________________________________________________________
dense_6 (Dense)              (None, 1, 36)             9036      
=================================================================
Total params: 417,496
Trainable params: 417,496
Non-trainable params: 0
_________________________________________________________________
Failed to load checkpoint
Generation      0 | Steps       1956 | Test reward    -6.0 | Mean pop reward    -7.2 | Time   78.82 seconds
Generation    100 | Steps     178498 | Test reward    -6.7 | Mean pop reward    -6.3 | Time  383.35 seconds
…
