_________________________________________________________________
Layer (type)                 Output Shape              Param #   
=================================================================
dense_1 (Dense)              (None, 1, 360)            129960    
_________________________________________________________________
dense_2 (Dense)              (None, 1, 200)            72200     
_________________________________________________________________
dense_3 (Dense)              (None, 1, 200)            40200     
_________________________________________________________________
dense_4 (Dense)              (None, 1, 200)            40200     
_________________________________________________________________
dense_5 (Dense)              (None, 1, 36)             7236      
=================================================================
Total params: 289,796
Trainable params: 289,796
Non-trainable params: 0
_________________________________________________________________
Loaded checkpoint. ResuminGeneration      0 | Test reward    -5.2 | Mean pop reward    -7.0 | Time   27.59 seconds
Generation     25 | Test reward    -6.8 | Mean pop reward    -6.5 | Time   96.47 seconds
…
