_________________________________________________________________
Layer (type)                 Output Shape              Param #   
=================================================================
conv2d_1 (Conv2D)            (None, 4, 4, 15)          3765      
_________________________________________________________________
conv2d_2 (Conv2D)            (None, 4, 4, 35)          4760      
_________________________________________________________________
flatten_1 (Flatten)          (None, 560)               0         
_________________________________________________________________
dense_1 (Dense)              (None, 200)               112200    
_________________________________________________________________
dense_2 (Dense)              (None, 200)               40200     
_________________________________________________________________
dense_3 (Dense)              (None, 200)               40200     
_________________________________________________________________
dense_4 (Dense)              (None, 200)               40200     
_________________________________________________________________
dense_5 (Dense)              (None, 16)                3216      
=================================================================
Total params: 244,541
Trainable params: 244,541
Non-trainable params: 0
_________________________________________________________________
Failed to load checkpoint
Generation      0 | Steps        302 | Test reward    -0.3 | Mean pop reward    -0.3 | Time  468.36 seconds
Generation    100 | Steps      30668 | Test reward    -0.6 | Mean pop reward    -0.4 | Time  719.15 seconds
…
