_________________________________________________________________
Layer (type)                 Output Shape              Param #   
=================================================================
conv2d_1 (Conv2D)            (None, 6, 6, 15)          3765      
_________________________________________________________________
conv2d_2 (Conv2D)            (None, 6, 6, 35)          4760      
_________________________________________________________________
flatten_1 (Flatten)          (None, 1260)              0         
_________________________________________________________________
dense_1 (Dense)              (None, 200)               252200    
_________________________________________________________________
dense_2 (Dense)              (None, 200)               40200     
_________________________________________________________________
dense_3 (Dense)              (None, 200)               40200     
_________________________________________________________________
dense_4 (Dense)              (None, 200)               40200     
_________________________________________________________________
dense_5 (Dense)              (None, 36)                7236      
=================================================================
Total params: 388,561
Trainable params: 388,561
Non-trainable params: 0
_________________________________________________________________
Failed to load checkpoint
Generation      0 | Steps        246 | Test reward    -0.1 | Mean pop reward    -0.1 | Time  149.49 seconds
Generation    100 | Steps     124440 | Test reward    -5.9 | Mean pop reward    -5.0 | Time  360.98 seconds
…
