_________________________________________________________________
Layer (type)                 Output Shape              Param #   
=================================================================
dense_1 (Dense)              (None, 1, 160)            25760     
_________________________________________________________________
dense_2 (Dense)              (None, 1, 250)            40250     
_________________________________________________________________
dense_3 (Dense)              (None, 1, 250)            62750     
_________________________________________________________________
dense_4 (Dense)              (None, 1, 250)            62750     
_________________________________________________________________
dense_5 (Dense)              (None, 1, 250)            62750     
_________________________________________________________________
dense_6 (Dense)              (None, 1, 16)             4016      
=================================================================
Total params: 258,276
Trainable params: 258,276
Non-trainable params: 0
_________________________________________________________________
Failed to load checkpoint
Generation      0 | Steps        672 | Test reward    -2.6 | Mean pop reward    -3.2 | Time   53.15 seconds
Generation    100 | Steps      43309 | Test reward    -2.1 | Mean pop reward    -2.2 | Time  244.66 seconds
…
