_________________________________________________________________
Layer (type)                 Output Shape              Param #   
=================================================================
dense_1 (Dense)              (None, 1, 360)            26280     
_________________________________________________________________
dense_2 (Dense)              (None, 1, 250)            90250     
_________________________________________________________________
dense_3 (Dense)              (None, 1, 250)            62750     
_________________________________________________________________
dense_4 (Dense)              (None, 1, 250)            62750     
_________________________________________________________________
dense_5 (Dense)              (None, 1, 250)            62750     
_________________________________________________________________
dense_6 (Dense)              (None, 1, 36)             9036      
=================================================================
Total params: 313,816
Trainable params: 313,816
Non-trainable params: 0
_________________________________________________________________
Failed to load checkpoint
Generation      0 | Steps       2285 | Test reward    -6.9 | Mean pop reward    -6.8 | Time  273.85 seconds
Generation    100 | Steps     210605 | Test reward    -7.5 | Mean pop reward    -6.1 | Time  589.02 seconds
…
